NVIDIA-Jetson/@Deploy/model.pth (torch, 22452 bytes, 5 tensors)

fc1.weight f4 [64, 12]
000000 de 4d 12 3d fb 9c 2b be cc 61 f1 3c e0 5b 50 3e
       0.03571879 -0.16759102 0.029465578 0.20347548
000010 ae b4 77 3e 7c b5 e2 bc 5e 81 21 3e c6 9e 7f 3e
       0.24190018 -0.02767443 0.15772006 0.24962911
000020 eb 83 34 3e c0 4e 5c bc 30 95 22 be e5 4c 6f 3e
       0.17628448 -0.01344651 -0.15877223 0.23369177
000030 7b bc 27 be 25 5f 56 be 50 61 3e bc e0 ef 88 3e
       -0.16380493 -0.20934732 -0.011619881 0.2674551
000040 85 d4 7d bd 82 82 8c 3d de 07 4b 3e 96 2f 57 be
       -0.061970253 0.0686083 0.1982722 -0.21014246
000050 e9 72 91 3e 77 01 82 3e b1 a7 ec bd 65 55 4e 3e
       0.28407982 0.25391743 -0.11555422 0.20149763
000060 dc 5f e5 3d 8c 89 dc 3d 28 50 5a be 72 6e 85 be
       0.11199924 0.107684225 -0.2131964 -0.26060826
000070 e9 52 13 be d0 ab 91 be 72 59 34 3e e4 1f 0e 3d
       -0.14387096 -0.28451395 0.17612246 0.034698382
000080 29 02 50 3e 9a 0c 56 3c 94 b0 54 3e ba 3c 1f be
       0.20313324 0.013064528 0.20770484 -0.15550509
000090 5e fa 80 3e 2a d1 cb bb bf 9c 8d 3e 1d ef 81 be
       0.25191015 -0.0062200027 0.2765865 -0.2537774
0000a0 01 0c 76 be 06 61 59 be 90 78 9c 3d b7 93 8a 3e
       -0.24028017 -0.21228418 0.07640183 0.27065822
0000b0 7d eb 35 3e 13 fd ac 3c bc 5f 1a 3e 0d 73 44 be
       0.17765613 0.021116769 0.15075582 -0.19184513
0000c0 ae 09 72 3e 3f 0c 06 be 32 1f e3 bd bd ed 2a bd
       0.23636505 -0.13090609 -0.110899344 -0.04173063
0000d0 75 77 64 bd 6a d5 0e 3e 2a 0e 30 be bd 82 ec bd
       -0.055777986 0.13948599 -0.17192903 -0.11548374
0000e0 e2 8f 2c 3d d1 a3 35 be 86 14 58 be 5f a8 99 bd
       0.042129405 -0.17738272 -0.21101579 -0.07502817
0000f0 4b 42 09 bd 2d 56 78 be 8b 25 1f 3e 74 81 c9 bc
       -0.033510488 -0.24251623 0.15541665 -0.02459786
000100 f6 93 47 3d 6f 76 07 be ee dd a6 bc fe fb 89 be
       0.04872509 -0.13228773 -0.020369496 -0.26950067
000110 75 55 da bd 5a d8 87 be 34 de 04 be 5c 93 4a be
       -0.10660831 -0.2653225 -0.12975389 -0.19782776
000120 74 a7 1b 3e 6c 55 d6 3d be b7 ca bd 7a 7b 5f bd
       0.15200597 0.10465512 -0.09898327 -0.054561116
000130 2f df 31 bc 4d 64 cf bd 19 2b 34 3e df 57 2f 3e
       -0.010856434 -0.10126553 0.17594565 0.17123364
000140 64 a4 6e 3e ee 5e 27 3e c8 19 2f be c8 10 99 3d
       0.23304898 0.16344807 -0.17099679 0.07473904
000150 84 10 31 be 39 fa 1f be 2e 42 49 be 4a f5 47 be
       -0.17291456 -0.15622796 -0.19654152 -0.19527164
000160 bf 4a 49 3e 48 86 01 be 06 d2 de bd 7e 96 4b 3d
       0.1965742 -0.1264888 -0.108799025 0.049704067
000170 2d 8a bc 3d ab e9 2a be 88 79 7c be 1d 81 76 be
       0.092060424 -0.166907 -0.24655735 -0.2407269
000180 d5 2f 64 3e 9e 35 c5 bd 2c 58 98 3d 8a d7 91 be
       0.22283871 -0.09629367 0.074386925 -0.28484756
000190 d2 33 5c be 43 42 26 3b 36 07 33 be 65 0c 4b bd
       -0.21504143 0.0025369085 -0.1748322 -0.049572367
0001a0 67 ee 90 3d a9 1c 1a be 3e 84 64 be 01 90 57 3d
       0.07076722 -0.15049995 -0.22316071 0.052627567
0001b0 d0 ce 28 bd e0 b1 11 be d1 12 2e 3d 63 9e 2b be
       -0.041212857 -0.1422801 0.042498413 -0.16759638
0001c0 ae 43 1c 3e 06 15 8a 3e 5c d8 e1 3d 77 b3 0a 3e
       0.15260193 0.26969165 0.110275954 0.13545023
0001d0 fd f1 87 3d 9b 65 7c be cb a3 88 bd c5 00 8d bd
       0.066379525 -0.24648134 -0.06671866 -0.068849124
0001e0 94 94 b4 3c 19 5d 84 3e 94 57 33 be 67 dc e0 bd
       0.022043504 0.25852278 -0.17513877 -0.109795384
0001f0 4a 16 8e be db 3c 47 3e 3d f5 bd 3d 46 ac 20 be
       -0.2775138 0.19456808 0.09275291 -0.15690717
000200 ac d7 3a be 43 ab 10 be 7f ee 5f be 00 91 8b be
       -0.18246335 -0.14127831 -0.21868323 -0.27259064
000210 6a ab c3 bc a2 cf 77 3e 44 0f e7 bd 64 33 09 be
       -0.023885448 0.242003 -0.112822086 -0.1339851
000220 75 9a b0 bd 49 c1 7d bd 21 9d 19 be 7d bf 3a 3c
       -0.0862321 -0.06195191 -0.15001346 0.011398193
000230 a3 1d 37 be f2 5d 95 3d 82 77 51 be 63 c4 47 3c
       -0.178824 0.07293309 -0.20455745 0.012192818
000240 b1 99 6f 3e 68 a7 a8 ba 40 cb 53 3e dc fd 39 be
       0.23398472 -0.0012867274 0.20683002 -0.18163246
000250 7c 13 2e 3e e3 c0 e0 3d 31 27 0e 3e 54 92 eb bd
       0.1699962 0.1097429 0.13882138 -0.11502519
000260 56 7e 36 3e ce 26 83 be ff eb e9 3c 6e bc 1e 3e
       0.17821631 -0.25615543 0.028554915 0.15501568
000270 74 c9 1a be ff b9 31 3e 5c 25 f2 bd fb 9d 69 bc
       -0.15115911 0.17356108 -0.11823532 -0.014258857
000280 3d 0d 5b 3e 4c d4 75 bd 42 41 95 bc 68 c7 d1 3d
       0.21391769 -0.060016915 -0.018219594 0.10243112
000290 ec ea 5a 3d e2 97 1e bd e7 61 37 3e 9a 7a b8 3c
       0.053446695 -0.038719065 0.1790844 0.022519398
0002a0 c0 64 72 be 03 7c 63 be 9c c8 48 be cc e7 be 3d
       -0.23671246 -0.22215275 -0.19607776 0.093215555
0002b0 f3 95 49 3e 7e 11 2f be 57 49 62 3e 79 2a 67 bd
       0.19686107 -0.17096516 0.2209829 -0.05643699
0002c0 48 72 87 3e 25 5a 88 be c2 47 8d be 5c 50 65 bd
       0.26454377 -0.26631275 -0.2759381 -0.05598484
0002d0 b9 36 cb bd b0 3f 46 bc 79 df 82 3d a0 b8 7a be
       -0.09922547 -0.012100145 0.0639028 -0.24484491
0002e0 df e1 ff 3c ab 92 84 3d de 72 59 3e 85 c3 61 3e
       0.031235633 0.06473287 0.21235225 0.22047241
0002f0 3b 38 8c be 8a c2 a5 3d cd 93 64 be 32 72 21 be
       -0.2738665 0.08093746 -0.22322007 -0.15766218
000300 3c 3d 31 3d e9 9b 3e 3e 24 36 c3 3d a8 2b 5e be
       0.04327129 0.18614163 0.09531811 -0.21696341
000310 88 7f d8 3c c1 e3 21 3e c9 36 64 be 86 78 0c 3e
       0.026428 0.15809537 -0.22286524 0.13717851
000320 9c ff eb 3d af e8 00 3e 46 ce 8f be ab 12 92 3e
       0.11523363 0.12588762 -0.28087062 0.28529868
000330 2f 83 71 be 4b ba 7a 3e 2b ed 9b 3d 11 70 ee 3c
       -0.23585199 0.24485128 0.076135956 0.029106172
000340 b8 86 b0 bc ac f0 90 be 96 01 94 3d 42 69 8f be
       -0.021548614 -0.28308618 0.07226865 -0.28009993
000350 16 23 75 3c f1 a4 56 3e 28 01 1c bd e0 80 3c 3e
       0.014961978 0.20961358 -0.03808704 0.18408537
000360 79 bd 42 bd 7d 83 48 3d 16 e7 80 be 99 51 da bd
       -0.047543976 0.048953522 -0.25176305 -0.10660095
000370 d5 d7 1c 3e 4a 52 b1 3d 07 7e 5d be 52 9c 87 be
       0.15316708 0.086582735 -0.21630107 -0.2648645
000380 f5 50 57 3e 92 fd 86 be 0c cc 64 be a7 10 8e 3e
       0.21026976 -0.26365334 -0.22343463 0.2774708
000390 05 1d 21 3e 1e 48 e6 3d cd 65 53 3e a1 d9 cf 3d
       0.15733726 0.11244224 0.20644303 0.10148931
0003a0 b0 08 25 3d 5f 7b 97 bd 91 d1 6d 3e ca a4 70 bd
       0.04029149 -0.07396578 0.23224474 -0.058750905
0003b0 1a 8e e6 3d e1 1f 39 be 37 a1 ba 3d 62 c6 7d be
       0.112575725 -0.18078567 0.091127805 -0.24782708
0003c0 e2 21 7d be e6 95 6b be 7f 2e 1b 3d bf 1b 1e be
       -0.24719957 -0.230064 0.03788614 -0.15440272
0003d0 7c 39 9a 3d 59 62 62 3d bf f9 44 3e 51 79 24 3e
       0.075304955 0.055269573 0.19235896 0.16061904
0003e0 f3 28 89 3e c2 05 58 be 79 58 5d 3e 79 76 6f be
       0.26789054 -0.21095946 0.21615781 -0.23385037
0003f0 15 f1 4b be a6 0f 38 bd 9d 39 8f 3e 2a 86 32 be
       -0.19916184 -0.0449368 0.27973643 -0.17433992

fc1.bias f4 [64]
000000 e3 d5 6e be 25 5b 07 3e fd 77 3b 3e 26 cc 17 3d
       -0.23323779 0.13218363 0.1830749 0.037059925
000010 e4 e0 c3 3d b2 08 18 bd 57 2c 0f 3e 8f e8 8a be
       0.09564379 -0.037117667 0.13981758 -0.27130553
000020 cf c6 8d 3e a2 67 47 be ea c3 c1 3b e9 0a 04 3e
       0.2769074 -0.19473127 0.0059132474 0.12894787
000030 e8 81 26 3e 90 ce 51 be a1 f6 74 bb d4 7a 13 3e
       0.16260493 -0.20488954 -0.0037378448 0.14402324
000040 b4 2a 5e bd 79 d0 41 3d bb 5a 79 3e f0 80 07 3d
       -0.054239944 0.047317956 0.24351017 0.03308195
000050 01 93 92 3e 02 1a 0c 3d d1 0c 87 bd 13 12 43 be
       0.2862778 0.03420449 -0.065942414 -0.19049864
000060 92 fc 30 3c ff 54 b0 3b 22 48 3c 3e bd b1 1f 3c
       0.010802405 0.005381226 0.18386891 0.009746966
000070 e1 a7 82 3e a0 ee 7a 3d a7 f5 ee 3d 5d 3b 1c bc
       0.25518706 0.061262727 0.11667948 -0.009535638
000080 1a 92 c2 3d b5 13 14 be 71 5f e0 bd f8 fe 95 3d
       0.09500523 -0.14460643 -0.10955704 0.07324022
000090 4d bc a7 bd a8 14 45 be ee 1c a1 bd 52 da a4 3d
       -0.081902124 -0.19246161 -0.07866846 0.08049454
0000a0 cf 07 10 be 8e 9e 8b 3e b1 4f 57 3e b4 f6 4e be
       -0.14065479 0.27269405 0.21026494 -0.20211297
0000b0 41 de c1 3d 14 89 41 be a2 a7 82 bd 32 6c 21 be
       0.0946622 -0.18899947 -0.0637963 -0.1576393
0000c0 57 70 89 3e dc bf c6 3d ba 88 9c bb 41 1d 8b be
       0.2684352 0.09704563 -0.0047770413 -0.27170756
0000d0 9c 0b 8a bc e6 84 c8 bd ef db fe bd f2 9e 69 3e
       -0.016851239 -0.09790973 -0.12444293 0.22814539
0000e0 e5 11 df 3d 62 e5 74 3e 77 57 ae 3d d3 bb 8a be
       0.10892085 0.23915628 0.08512776 -0.27096424
0000f0 62 b1 d7 bd 7f 0b 1f 3d be 86 9e 3c 1b 9f 88 3e
       -0.1053188 0.038829323 0.01935136 0.26683888

fc2.weight f4 [64, 64]
000000 ae 71 a3 3d 1c 6a 42 3d ae 77 ab bd 00 80 01 b8
       0.07980667 0.047464475 -0.083724365 -3.0875206e-05
000010 a0 3f 86 3d 1c d6 cc 3d 20 97 92 3d a0 42 fc bb
       0.06555104 0.100017756 0.07157731 -0.007698372
000020 68 04 b6 3c 6c 80 22 3d d0 c8 fb bc c0 53 a1 bb
       0.022218898 0.039673254 -0.030735403 -0.004923314
000030 6a d7 a6 bd 80 23 99 ba f6 d1 a9 3d 90 8a 73 3c
       -0.08146556 -0.0011683553 0.08292 0.014864579
000040 94 4a e4 3d 7e c1 97 bd 08 de f9 3c c8 5f 5a bd
       0.11147037 -0.074099526 0.03050138 -0.053314
000050 30 5e 85 3c 8a b2 cf 3d 40 26 2a bc c0 d6 51 bb
       0.016280264 0.101414755 -0.010385096 -0.003201887
000060 5e d6 80 3d 80 5a ca bb d8 5a a3 bd ea 54 96 3d
       0.06290887 -0.006175339 -0.079763114 0.07340415
000070 b8 01 0a 3d fc 85 15 3d 00 81 62 3d 4c 60 ca 3d
       0.033693045 0.03650473 0.055298805 0.098816484
000080 10 4b ca bd 68 e0 15 3d 70 6d e8 3d 90 f2 10 bd
       -0.09877598 0.036590964 0.113489985 -0.035387576
000090 e4 9f a2 bd 60 38 23 bc e0 a6 fc bc c0 e8 7d bd
       -0.07940653 -0.009962171 -0.030841291 -0.061989546
0000a0 a0 ce ca bd 78 2b b3 3c f2 07 c7 bd 90 3e e0 bc
       -0.09902692 0.021871313 -0.09718312 -0.027373582
0000b0 10 43 9a 3c fa 2d bc 3d 3e a8 b1 3d ce af c4 3d
       0.018830806 0.09188457 0.08674668 0.096038446
0000c0 7e 66 d8 3d 4e d2 a1 bd 40 96 d0 bb 68 c6 ab bc
       0.10566424 -0.079014406 -0.0063655674 -0.02096863
0000d0 b8 32 a9 3d 5c d6 ef bd 9e 96 bd bd 00 24 13 3a
       0.08261627 -0.11710808 -0.092572436 0.00056129694
0000e0 54 bf 84 bd fc 4f 1f 3d 50 36 9e 3c 70 7d 11 bc
       -0.064818054 0.03889464 0.019313008 -0.008880004
0000f0 aa e3 c7 3d 42 00 e1 3d e8 87 27 bd cc 01 e5 3d
       0.0976022 0.10986377 -0.040901095 0.11181983
000100 04 80 54 bd d0 a7 44 bd 56 48 d2 bd b0 1a a3 bd
       -0.051879898 -0.0480116 -0.10267703 -0.079640746
000110 60 ad a6 3d e0 c5 b3 3b 28 28 52 3d 00 9c 09 3a
       0.081385374 0.005486235 0.051307827 0.0005249381
000120 c0 05 2e bd cc 35 91 3d c8 ca b1 bc 6c 4a 36 bd
       -0.042485952 0.07090339 -0.021703139 -0.044504568
000130 80 88 c6 3b e4 0b 52 3d 9a 11 ae 3d b6 a1 83 bd
       0.0060587525 0.05128087 0.08499451 -0.06427328
000140 a8 98 a3 bc 32 e0 a9 bd 46 52 9c bd 8c 5d ed 3d
       -0.019970253 -0.08294715 -0.0763288 0.11590108
000150 02 b5 c3 3d d0 2e 52 3c 30 d3 16 bd 88 ba 91 bc
       0.09556009 0.012828544 -0.036822498 -0.01778914
000160 78 a2 ca bc 28 3b a8 bc 7c 65 c9 3d f4 af 18 bd
       -0.024735674 -0.02053602 0.0983381 -0.037277177
000170 b2 ea 85 3d 22 b9 c3 3d 00 ba fc 39 40 5a c6 3b
       0.06538905 0.09556796 0.00048203766 0.006053239
000180 c4 b1 20 3d fa 95 f5 bd 94 41 a6 bd 24 7f 03 3d
       0.03923203 -0.119914964 -0.08117977 0.032103673
000190 40 4f f2 3d a8 e8 67 3d 36 39 ae 3d 18 73 ad bd
       0.11831522 0.056618363 0.08507006 -0.08469218
0001a0 9c f8 51 bd 56 52 a6 3d e0 b6 30 3c 48 16 f0 bd
       -0.051262483 0.08121173 0.010785788 -0.11723
0001b0 5c e1 c7 3d 38 d8 5f 3d 50 e4 75 bd 30 10 26 3c
       0.09759781 0.05464956 -0.06003219 0.010135695
0001c0 ec fa a1 3d 20 31 69 bd b6 73 b9 3d 28 78 de 3c
       0.07909188 -0.056931615 0.09055273 0.027156904
0001d0 42 36 f6 bd 14 20 56 bd 40 7d f4 bb d0 28 00 3d
       -0.120220676 -0.052276686 -0.00746122 0.03128892
0001e0 20 2f ed bc 30 87 66 bd 10 70 8d bd 5e b2 83 3d
       -0.028953135 -0.05628127 -0.0690614 0.06430505
0001f0 3e 98 c8 3d 88 00 bb 3c 36 9b a5 bd f0 5f 92 3d
       0.09794663 0.022827402 -0.08086245 0.07147205
000200 e0 2e 89 3c 4c 70 c6 bd 70 d8 92 bc ae 9e fb bd
       0.016745985 -0.09689388 -0.017925471 -0.12286125
000210 dc e8 9b 3d e0 54 38 bd 7e 59 c7 3d 60 79 65 bd
       0.07612774 -0.045002818 0.09733866 -0.056023955
000220 b6 f5 96 bd a0 f6 4d 3c 0c 9e 70 bd a6 47 8f 3d
       -0.073710844 0.012571007 -0.058744475 0.06996088
000230 b0 68 40 3d 08 31 cb bd a4 90 b3 3d 00 7d c8 bc
       0.046974838 -0.09921461 0.087678224 -0.024473667
000240 60 a9 8d 3c 3c f3 a6 3d 60 66 c6 3c 96 c7 c9 bd
       0.017292678 0.08151862 0.024218738 -0.09852521
000250 0c fc 28 bd 48 8a fa 3c d4 cb 4f 3d 60 1b 75 3d
       -0.041255996 0.030583516 0.050731495 0.05984056
000260 3e 84 92 3d 42 79 de 3d b0 f0 f0 3c 68 64 f1 bc
       0.071541294 0.10862972 0.029411644 -0.029466823
000270 84 37 98 3d 6c c5 8f 3d d0 df 8d bc 40 a5 fb bd
       0.07432464 0.07020077 -0.017318636 -0.12287378
000280 f4 86 db 3d 80 76 b5 ba 90 ca 21 bd 7e ea fa bd
       0.107191 -0.001384452 -0.03949982 -0.12251757
000290 f2 15 88 bd 60 d3 fe bd 30 54 3d bc e2 67 ca 3d
       -0.06644811 -0.1244266 -0.011555716 0.09883095
0002a0 80 7e a0 3b 70 67 a5 3c ec 18 aa 3d a0 53 59 3d
       0.0048978925 0.020190924 0.08305535 0.053058267
0002b0 ec 3b be bd 1c 36 97 bd 00 98 04 ba 6e 02 e8 3d
       -0.09288773 -0.073833674 -0.000505805 0.113285884
0002c0 3c 31 15 3d bc 8d 78 3d 38 e3 92 3d 08 e0 81 bd
       0.036423907 0.060682043 0.07172245 -0.06341559
0002d0 16 c5 cf bd d4 9d dc bd 00 46 47 3a c0 05 7d 3b
       -0.10145013 -0.10772291 0.00076016784 0.0038608164
0002e0 e4 dc 27 3d 2c e7 49 bd c6 a2 8f bd 4e 79 9b 3d
       0.040982142 -0.04929273 -0.070134684 0.075914964
0002f0 60 65 55 bd 0c 26 f4 bd c0 8c 1d 3d 40 64 be 3d
       -0.05209863 -0.11921319 0.038464308 0.09296465
000300 80 15 a6 bc 2c 8c 00 3d 68 32 bc bd 00 3c 9d 3a
       -0.020273924 0.03138368 -0.09189302 0.0011996031
000310 a8 30 da 3d f6 d9 d2 3d 60 cd 2e bc ac 87 61 bd
       0.10653812 0.10295479 -0.010669082 -0.055061027
000320 6a 4f f3 3d c0 78 5c bd c8 e2 5f bd d8 89 93 3c
       0.118803814 -0.053826094 -0.054659635 0.018010065
000330 94 f9 2e bd 00 ed 9b 3b 24 e8 2d 3d e2 d3 b4 3d
       -0.042718485 0.004758477 0.042457715 0.08829476
000340 08 f8 80 bd ce d2 81 bd b8 90 a4 bd da 41 c5 3d
       -0.06297308 -0.06339036 -0.080354154 0.09631701
000350 c0 a7 27 bc 80 b5 86 3a 00 d6 e4 b9 04 c2 d0 3d
       -0.010232866 0.001027748 -0.0004364699 0.101932555
000360 7c ee 15 bd 60 19 59 3d 2a 9c 95 bd 88 21 59 bd
       -0.03660439 0.053002715 -0.073051766 -0.053010494
000370 ca 05 95 bd 68 ad 2a 3d cc 57 b6 3d 90 40 14 bc
       -0.07276495 0.04166928 0.08903465 -0.009048596
000380 c2 75 f6 3d 54 b1 4d 3d 00 51 c8 ba d8 e1 f8 3d
       0.12034179 0.05021794 -0.0015282929 0.12152451
000390 5c 93 c6 bd 4a e0 ef bd 7c 9d 04 3d f4 9b be bd
       -0.09696075 -0.117127016 0.03237675 -0.093070894
0003a0 ec 91 97 3d d0 2f 66 bd 02 a8 a1 3d 6c da 13 bd
       0.07400879 -0.05619794 0.07893373 -0.036096975
0003b0 bc 2f a5 3d 60 ef 1d 3c 44 51 d7 bd 6c cb a9 bd
       0.08065745 0.009639591 -0.10513547 -0.08290753
0003c0 74 b9 5b 3d 48 4c 34 bd 10 e6 b0 3c 4c 34 a9 3d
       0.05364366 -0.04401806 0.021594077 0.08261928
0003d0 68 53 3d 3d 80 1a 09 3c b4 e0 d3 bd 12 7b ba 3d
       0.04622212 0.0083681345 -0.10345593 0.09105505
0003e0 78 4c 05 3d 26 00 ff 3d 90 a8 b4 3d 62 44 ec bd
       0.03254363 0.124512 0.08821213 -0.115364805
0003f0 34 ef a4 3d 04 24 1b bd 90 95 77 3c 20 c6 eb 3b
       0.08053437 -0.037876144 0.015111342 0.007195249

fc2.bias f4 [64]
000000 fc a6 ef 3d b8 60 c4 bc bc 05 f4 3d de c0 ae bd
       0.117017716 -0.0239719 0.11915156 -0.0853288
000010 ec e0 6e 3d 60 e5 1e bd f4 f6 35 bd 78 50 d1 3c
       0.05831997 -0.038792968 -0.044424966 0.025551066
000020 96 67 9f 3d 68 e2 f7 bd fc 5b fc 3d b6 a5 95 bd
       0.07783429 -0.121037304 0.12322232 -0.073069975
000030 80 8f 17 bc 08 df 48 bd 3c 61 c7 3d f6 f7 a8 3d
       -0.009250522 -0.049040824 0.09735343 0.0825042
000040 44 d0 74 bd 58 17 2c 3d 00 f8 cd b9 f8 7b a6 3d
       -0.05976893 0.04201445 -0.0003928542 0.08129114
000050 bc 8c 39 bd 62 1a f5 3d 16 13 df bd 4e 0d e2 3d
       -0.04530023 0.11967923 -0.10892312 0.11037694
000060 30 f6 6e bd b0 15 66 3c 3c 23 e7 3d 24 47 e7 bd
       -0.05834025 0.014043257 0.11286017 -0.11292866
000070 7e a7 fa bd 28 eb b7 3c d8 e1 df bc de 81 90 3d
       -0.12238978 0.022450998 -0.02732937 0.0705602
000080 fc 57 31 3d fc f3 62 bd 4a 07 9d bd f8 0d c7 3c
       0.0432968 -0.055408463 -0.07667406 0.024298653
000090 94 46 2e bd b8 0e 49 bd 74 d3 39 bd 00 d9 9f 3d
       -0.042547777 -0.049086303 -0.045367673 0.07805061
0000a0 f8 6f 1f 3d 50 ff 4b bc e0 72 37 bc c8 2a 68 bd
       0.03892514 -0.012451008 -0.011196822 -0.056681424
0000b0 48 09 c9 3d ec 3b 34 3d 0c 94 5e bd b4 49 9a 3d
       0.098162234 0.04400246 -0.054340407 0.07533589
0000c0 ca e4 d0 3d 5c 1a 64 bd 00 fd 30 3b 2c 85 de bd
       0.10199888 -0.0556892 0.0027006269 -0.10865244
0000d0 0e 35 c5 bd f8 3b f9 bd 38 2f 81 3c 74 3a c2 bd
       -0.0962926 -0.12169641 0.015769586 -0.09483805
0000e0 60 99 db 3c 20 2e bc 3d d0 22 54 3c f0 43 02 bc
       0.026806533 0.09188485 0.012947753 -0.007950768
0000f0 84 52 e0 bd 12 03 e0 3d 20 c0 d2 3c ce e4 d3 bd
       -0.109532386 0.109380856 0.025726378 -0.103463754

fc3.weight f4 [1, 64]
000000 74 76 fb bd 8a 42 8f bd 40 e5 98 bc b4 ce a1 3d
       -0.122784525 -0.06995113 -0.018664002 0.079007536
000010 28 a0 ec 3c 10 f6 9a 3c 48 15 4c bd c8 bd a3 bc
       0.028884962 0.01891616 -0.049824983 -0.019987956
000020 90 90 1e bc 20 d8 46 3c c0 0b 33 3d 80 d6 a8 bb
       -0.009678021 0.012136489 0.043712378 -0.0051525235
000030 68 c1 ed 3d 5c 09 80 3d 38 f6 8a 3d 7c d5 74 3d
       0.11609155 0.06251785 0.06785244 0.059773907
000040 60 14 3b 3c 28 b5 b3 bc b4 b6 4b 3d 56 7d ec bd
       0.011418432 -0.021936968 0.049734786 -0.115473434
000050 a8 6c 93 3d a0 9a e2 3c 34 52 f3 bd 1e 15 e8 3d
       0.07198459 0.027661622 -0.118809134 0.11332153
000060 b2 75 d1 3d 6e 1d d7 bd 04 98 7f 3d 0e 35 b7 bd
       0.10227527 -0.1050366 0.062400833 -0.08945666
000070 12 85 ed bd 8a 9b f7 bd b8 36 b5 bd d8 35 94 3c
       -0.11597647 -0.120902136 -0.088483274 0.018092081
000080 60 5f 4b 3d 50 1f c8 3d 26 9a ec 3d e6 a0 b2 3d
       0.049651504 0.097715974 0.11552839 0.08722095
000090 6a 63 80 bd 0e 8e fd bd fa e3 dd bd d6 f6 dd 3d
       -0.06268962 -0.123806104 -0.10834499 0.10838096
0000a0 18 9e 74 3d 80 04 3e 3d 72 8a bb 3d aa 19 ba 3d
       0.059721082 0.04639101 0.09157266 0.09086926
0000b0 08 41 fe 3c 38 c4 b3 3c 3c 4a 65 3d a4 74 f4 bd
       0.031036869 0.02194415 0.055979 -0.1193631
0000c0 b6 b7 ea bd 9c 1c 75 bd 0c 4f fa bd 84 88 61 3d
       -0.11460821 -0.059841737 -0.12222108 0.055061832
0000d0 d0 52 08 3d 94 c3 51 3d 90 93 04 3d 40 e8 8e bd
       0.0332821 0.05121191 0.03236729 -0.06977892
0000e0 da 7f 80 bd 9e 00 cf 3d 18 d9 cc bd 74 99 0b 3d
       -0.06274386 0.101075396 -0.10002345 0.03408189
0000f0 70 67 e4 bc e6 65 b6 bd 3a 07 e4 bd c0 02 26 bd
       -0.027881354 -0.08906154 -0.11134191 -0.040529966
